.dart_tool/chrome-device/Default/optimization_guide_prediction_model_downloads/7a662fdc-f16f-402c-8666-35451c2487ab/model.tflite (tflite, 410364 bytes, 166 tensors)

context_transformer_0/bottleneck_input/norm/add f4 [32]
00000000: d6b9 59bd 9488 16bd 3cc3 afbd fbfe c63c
00000010: 3cf5 ad3e 7e22 473d db99 173d 1993 7e3e
00000020: 2812 55bc 2401 5dbd 5064 a0bd 150d 1fbd
00000030: c600 df3c fbf1 953d c9e2 093d 5831 df3b
00000040: fe4a 43bc 3a06 343d 28bf 273d 9594 723c
00000050: 3c48 99bd ce08 8b3d 9eda 7dbd 163f 0fbc
00000060: bce5 2b3e 5d1e e2bd 1c8a 583d 6dda 43be
00000070: 2ccf 343d 3572 a9bd a2b1 bebd ba46 bb3d
-0.053155743 -0.036751345 -0.0858216 0.024291506 0.3397616 0.04861688 0.037011962 0.24860801
-0.013004817 -0.053956166 -0.07831633 -0.038830835 0.027222048 0.07321545 0.033663545 0.006811302
-0.011919735 0.04395125 0.040953785 0.0148059325 -0.07484481 0.06788789 -0.061976068 -0.008743068
0.16786855 -0.110409476 0.052866086 -0.19126292 0.044142887 -0.082737364 -0.093112245 0.091443494

context_transformer_1/bottleneck_input/norm/add f4 [32]
00000000: 5424 293e e24d b43d 3877 fc3d eefd aa3d
00000010: 147d fbbd d05d 4f3b fee2 d13e 7098 14bd
00000020: 5184 aabd 3d81 083e 52e2 103e 5660 f33d
00000030: 726e 2fbe 160e edba 2347 603d 13c2 46bd
00000040: 4720 ea3b d231 263c a9b5 a7bc 7816 8bbd
00000050: 4fdd 8ebe a0e7 8cbd 9494 423d e80a 783d
00000060: f4c7 b3bd 3bd8 2b3e fa6b 5ebd b04c 073e
00000070: 3a58 0d3e c021 ed3b 35e5 c63d 9cdd 12bd
0.16517764 0.088039175 0.12327427 0.083492145 -0.12279716 0.003164161 0.40993494 -0.03627819
-0.083260186 0.1333055 0.14148834 0.11883609 -0.17131975 -0.0018085863 0.05475534 -0.048524927
0.007144961 0.010143714 -0.020472365 -0.06791395 -0.2790322 -0.068801165 0.047504976 0.060557276
-0.087783724 0.16781704 -0.054302193 0.13212848 0.13803187 0.0072366893 0.097116865 -0.035855874

mention_transformer_0/bottleneck_input/norm/add f4 [32]
00000000: d848 5e3e c875 8e3d 3766 3e3c b59a b1bd
00000010: 281e f0bc b6f1 edbd 52d0 c13d d87a 2dbd
00000020: 88e7 c83d 48fa a2bd ebd0 1ebc 966d edbd
00000030: 5285 9c3c d378 27be eed5 d93d f272 5d3d
00000040: 9874 5d3d cb34 b43b fc3b 1dbd 119a c33d
00000050: 6878 b8be 30c8 83bd a071 46bd 9678 91bd
00000060: 2004 d43e 33d4 f53c 3809 163d 0c83 8b3d
00000070: 8b60 0c3c 1e5c ab3c d374 e3bc 5677 a7bd
0.21707475 0.06956059 0.01162105 -0.08672086 -0.029311255 -0.11618368 0.09463562 -0.04235348
0.09809786 -0.079578936 -0.009693365 -0.115931675 0.01910654 -0.16354685 0.10636507 0.0540647
0.05406627 0.0054994575 -0.038387284 0.0955087 -0.36029363 -0.06434667 -0.048448205 -0.07103078
0.41409397 0.030008411 0.036629885 0.068121046 0.0085679395 0.020917948 -0.027765667 -0.081770584

mention_transformer_1/bottleneck_input/norm/add f4 [32]
00000000: 306b 13bc a5c8 ba3d e224 5b3e 87a7 833d
00000010: 6fe3 8e3d a24e a7bd 5fa6 723d ced5 b0bd
00000020: 2bcc 2c3e 9bf4 bc3d 1d68 5b3e 741d 823e
00000030: f059 3bbd aed1 22bf 1677 7bbe 79b3 59be
00000040: 6a7a 4cbe 7c5c 66be 5a0f 653e 3f13 0dbe
00000050: 72fc bd3e 5ed7 43be afae 143e 9225 c3bd
00000060: 3c8f 28bd 767a c53d 9672 a2bd 60b3 cdbe
00000070: fc9b 983e d2f4 b4bd c6d7 eabe f183 1e3d
-0.008997723 0.09120301 0.21400788 0.06428438 0.06976973 -0.08169295 0.059240695 -0.0863453
0.16874759 0.09226342 0.21426435 0.25413096 -0.045740068 -0.63601196 -0.24557146 -0.2125987
-0.19968572 -0.22496217 0.22369137 -0.13776873 0.37106663 -0.19125125 0.14519762 -0.0952865
-0.041152224 0.09642498 -0.07932012 -0.40175915 0.29806507 -0.08835758 -0.45867747 0.038700048

context_transformer_0/attention/value/add;context_transformer_0/attention/value/einsum/Einsum;context_transformer_0/attention/value/add/ReadVariableOp/resource f4 [32]
00000000: f5c7 06bd 6e03 6a3d 211e 38bd 2df3 533d
00000010: 52a4 70bd c5ea 5fbd 8531 33bc 33ba 27bd
00000020: ee33 6b3d 5e02 5e3c 8735 983d cd65 cc3d
00000030: f5ce 763d 5f4a a53d b777 31bc c853 75bb
00000040: 4085 723b 154b cbbd 9ea1 ba3d 352b 85bd
00000050: c115 cdbb 905b f93c 3c01 31bd 3b35 163e
00000060: 092f 133b 61c5 8d3d 9c05 ebbb 1519 313c
00000070: e622 603d d3e7 dd3c 70d1 8c3c 0f4b babd
-0.032905538 0.057132177 -0.04495061 0.051745582 -0.058750458 -0.054667253 -0.010937099 -0.040949058
0.05742257 0.013550369 0.074320845 0.099803545 0.060255963 0.08070826 -0.010831765 -0.003743397
0.0037005693 -0.0992643 0.09112857 -0.06502382 -0.006258697 0.030439168 -0.043214068 0.14668743
0.0022458455 0.06922413 -0.0071722995 0.010809203 0.05472078 0.027088081 0.017189711 -0.090963475

context_transformer_0/bottleneck_input/norm/mul f4 [32, 32]
00000000: d012 a4be d9a2 8e3e c2cc b43e fe4f 573d
00000010: e77e 7abd bc8f 12bf 80c8 20be 9fb7 5abd
00000020: a6a1 0b3f 1517 61be d9b8 86be 98aa 0dbd
00000030: 1ef7 973e 47db 82bc 59e9 583e 40b3 37be
00000040: 7818 83be 124f 79bd decd 083d ed2a 99be
00000050: 61ef 123e d613 a93e d264 6d3e 8ee0 8bbe
00000060: f3a0 6e3e 5546 873e ce62 8b3d f0b8 c83d
00000070: 3ca3 33be f955 c83d a951 773e 2984 ce3c
00000080: 6b2b b1be 5626 b33e 1b9e 35be de36 853e
00000090: 535e b03e 8c6c d0bc ab4e 2d3e d8d3 f5bd
000000a0: 21c2 053d 439c ffbe b988 c6be eafd 37bf
000000b0: 7e46 e6bc 9dcb 793d 8bbc 48bc a22c b53d
000000c0: 303c c6be 8df6 4cbd 1e56 c03d 93e5 643e
000000d0: 828d 9ebd df13 9e3e 3f82 033f c716 233d
000000e0: 480f 8f3e 3ddd 4f3e 2ea4 0c3e 1416 0fbd
000000f0: 9b5f 41be 98b7 b2be ba24 de3e aba1 643e
00000100: 18e5 f6bd ed0d e13e 7927 3ebe 987e b6be
00000110: 113a 03be 4991 a53d 8a1f 84be 9a7d 033e
00000120: 06fc 0ebf da8a c33c 49c3 31be fbec 26be
00000130: e704 d2bd 08d3 9bbc 9af3 71be 4c9d f5bd
00000140: 9261 9abd f7dd be3e f83a 04bf 198a 7a3e
00000150: ed7f 99be b484 e93d 7c45 e43c 5f90 ef3d
00000160: b4cc 973d 1cd9 5dbd 142b 71bc 2242 113e
00000170: 700a 9e3e b261 c8be 52bf a7be aa8f 08be
00000180: bd1a c63c e025 be3e bcae c6bd 5cd3 413e
00000190: f028 2dbe 9d8d 91be 8400 803d cb70 a83d
000001a0: c9f1 a23d 8d91 cebd 1c87 163e 9c77 b93d
000001b0: 3146 463d 0662 be3c 6a7b 8bbc e7ed 433e
000001c0: 70e1 05bd 4ce3 31bd 6f69 cf3d cbdb 0f3e
000001d0: 9b97 f73d 45ad ab3d 1cb7 dabd b12b cebe
000001e0: 9d66 7fbc 8c8a bebc d5ed 223d de39 12be
000001f0: c528 3bbe a86b 55bd 8746 603d f050 3bbd
00000200: c244 f33d f61a 303d 02ff 64be 884a 473e
00000210: b97f 20be 26f0 20be d5cd 15bd 7554 53bd
00000220: d511 2fbe 3759 eabd 3796 e13d b0d1 313e
00000230: dea1 e8bd d8af 69be 073f c4bc 5a90 2abd
00000240: 68e5 803e a740 8f3d 92c4 75bd b2df bbbe
00000250: 9e6f 053b 022f 5f3e 8d6b 89be 7a95 c0be
00000260: 646e 20be e153 a43e 4119 8c3e 2e97 3fbd
00000270: b8d9 6c3e 4626 e3bc ef86 1e3e 137c 4fbd
00000280: 2f4a d1bd 4950 ccbd 4fef f23d 49eb 0abe
00000290: 0133 e6bd 2f52 733e 6d3e 903c e775 c8bb
000002a0: f0b9 8cbc bdb7 c4be dfeb 34bd 26d9 90ba
000002b0: dec9 eb3d 19cf 7f3e eaa2 1e3c 8494 8cbe
000002c0: 66bb 37be f0fd 373d f98b c8bc ccfd 503e
000002d0: 719a b93d 80a6 07bd fc11 9bbe 26e7 d0bd
000002e0: cce7 60bd c485 053d e9ed 2d3e 4268 523e
000002f0: 78c7 c8bd d2b2 d1bd f4ef 9a3d 6f32 373e
00000300: 964e 01bf 7d9e 92be a009 f73e d76c 1b3e
00000310: 9375 b03d 963e 48bc 660b ddbd 716d 35be
00000320: da6d d73d 1e9b 48be ac7e ccbe 8a92 1f3e
00000330: 74f8 103d 22ee a73e 7b61 f1bd eb54 a6bd
00000340: b7ee c2bd dd64 713e 4a97 c03e a342 2ebe
00000350: 8d07 89bc 3bca 463c f9fd b13a 65a9 833d
00000360: 329d c8bd 5b30 df3d f206 54be cb13 8d3e
00000370: b26d 07bf bc03 abbe 968f 863d 356a 053e
00000380: a002 013f 102a 613d 94e6 893e 08d2 b13e
00000390: 7e91 12be ce5e 48be 5cb6 8dbe 9c26 f4bd
000003a0: 6efa 82be 580b fbbd 91bc 1d3f 7769 823e
000003b0: 8cca 91be e0d1 81be 7567 b1be ec0b c53d
000003c0: cedf c53e 1edf 9abe 45b2 c4be 41c1 e9be
000003d0: efb3 db3c a958 3a3d c342 923e d8e2 cfbe
000003e0: 5a34 21bf 2605 e03e eb9a a23e f9dc 06bf
000003f0: 125f 673f 76ec 113e 2391 bc3e c107 33bd
-0.32045603 0.27858618 0.35312468 0.05256652 -0.06115618 -0.5725057 -0.15701485 -0.05339777
0.5454353 -0.21981461 -0.26312903 -0.03458652 0.29680723 -0.0159737 0.21182765 -0.17939472
-0.25604606 -0.060866423 0.033399455 -0.29915562 0.14349128 0.33022946 0.23182991 -0.2731976
0.23303585 0.26420847 0.06805955 0.09800899 -0.17542738 0.09782023 0.24152245 0.025209503
-0.34603438 0.34990185 -0.17736094 0.26018423 0.34446964 -0.025442384 0.1692454 -0.120032966
0.03265584 -0.49923906 -0.38776186 -0.7187182 -0.028109785 0.060985196 -0.012251983 0.08846404
-0.38717794 -0.050039817 0.093914255 0.223532 -0.07741834 0.30874535 0.51370615 0.039816644
0.27941346 0.2029924 0.13734505 -0.034933165 -0.18884127 -0.34905696 0.43387395 0.22327296
-0.12055415 0.43955937 -0.18569745 -0.35643458 -0.1281512 0.080843516 -0.25805312 0.12840882
-0.5585331 0.02386992 -0.17359652 -0.16301338 -0.10254841 -0.019021526 -0.23628083 -0.119928926
-0.07538141 0.3727872 -0.5165248 0.24466743 -0.29980412 0.11402264 0.027865164 0.116974585
0.07412091 -0.05416213 -0.014719743 0.14185384 0.30867338 -0.39137036 -0.32763153 -0.13336053
0.024182672 0.3713827 -0.09701297 0.18928283 -0.16910148 -0.28428355 0.06250098 0.082246386
0.07956273 -0.10086355 0.14699978 0.09056017 0.048406783 0.0232401 -0.017026622 0.19133721
-0.032685697 -0.043429658 0.10127532 0.14048688 0.12089463 0.08382658 -0.106794566 -0.4026771
-0.01558843 -0.023259424 0.039777596 -0.14279887 -0.18277271 -0.052104622 0.05475476 -0.045731485
0.11878349 0.042994462 -0.22362903 0.19462025 -0.15673722 -0.1571661 -0.03657325 -0.051594216
-0.17096646 -0.11442798 0.11014979 0.17365146 -0.11358999 -0.22820985 -0.023955835 -0.04164157
0.25175023 0.06994753 -0.060001917 -0.36694103 0.0020360718 0.21795276 -0.26839867 -0.37614042
-0.1566711 0.32095245 0.27363017 -0.046775036 0.23129928 -0.027728211 0.1548116 -0.050655436
-0.102192275 -0.09976251 0.11862051 -0.13566317 -0.11240197 0.2376182 0.017607892 -0.0061175707
-0.017178506 -0.3842143 -0.044170257 -0.0011051043 0.115131125 0.24981345 0.009682396 -0.27457058
-0.1794258 0.044919908 -0.024480807 0.20409316 0.090626605 -0.03311777 -0.30287158 -0.10200338
-0.05490856 0.032598272 0.16985287 0.20547584 -0.09803671 -0.102391854 0.07565299 0.17890333
-0.5051054 -0.28636542 0.4824953 0.15178238 0.086161755 -0.012221953 -0.1079319 -0.1771753
0.105189994 -0.19590423 -0.39940393 0.15583244 0.035393193 0.32798868 -0.11786171 -0.081216656
-0.095181875 0.23573633 0.37615424 -0.17017607 -0.016727233 0.012133176 0.0013579718 0.06428794
-0.097956076 0.10897895 -0.20705774 0.27554163 -0.52901757 -0.33401287 0.065703556 0.13028796
0.5039463 0.054971755 0.2693373 0.34730554 -0.14313313 -0.19567415 -0.27678192 -0.11921427
-0.25581688 -0.12258023 0.61615855 0.25471088 -0.28474844 -0.25355434 -0.34649244 0.096214145
0.38647312 -0.3024835 -0.3841726 -0.45655254 0.026819197 0.04549471 0.2856656 -0.40602756
-0.6297051 0.43753928 0.31758818 -0.5268093 0.9037944 0.14250359 0.3682948 -0.043708567

context_transformer_0/kq_shared_bottleneck/norm/mul;context_transformer_0/kq_shared_bottleneck/norm/add;context_transformer_0/attention/key/einsum/Einsum;context_transformer_0/attention/key/add;context_transformer_0/attention/value/einsum/Einsum;context_transformer_0/attention/key/add/ReadVariableOp/resource f4 [32]
00000000: 9243 393e 34f2 ebbb 2045 f3bd e0fb 93bd
00000010: 8e26 b3be 42e4 67be cba4 80be 2bf6 f13d
00000020: 8795 e0bb 584f 5d3c efcf 85bd b227 283c
00000030: 6132 953d 5a55 87bc d0e2 8c3c 1f63 aabd
00000040: f075 3e3c b7af 693e 956c a23e c2e4 1bbe
00000050: eff7 673d e208 0a3e 8d03 b8be 796f 623e
00000060: 3b4c ff3d c377 253e 1e35 f9bd 5249 c13d
00000070: 379b 82bd ea13 c53d ad9d 35be ebd3 f1bd
0.18092182 -0.0072005037 -0.11878419 -0.07225776 -0.34990352 -0.22645667 -0.25125727 0.11814531
-0.0068537625 0.013507687 -0.06533801 0.01026337 0.07285 -0.016520191 0.017197996 -0.08319687
0.011624798 0.22820936 0.31723467 -0.15223983 0.056632932 0.13479951 -0.3594021 0.22112836
0.12465712 0.16158967 -0.121683344 0.09437813 -0.06377261 0.09622939 -0.1773593 -0.11807998

context_transformer_0/kq_shared_bottleneck/norm/mul;context_transformer_0/kq_shared_bottleneck/norm/add;context_transformer_0/attention/key/einsum/Einsum;context_transformer_0/attention/key/add;context_transformer_0/attention/value/einsum/Einsum;context_transformer_0/attention/key/add/ReadVariableOp/resource1 f4 [32, 32]
00000000: 8b93 883d 8c7f 933d 2317 2dbe 238e 33be
00000010: 7a7f 113e 4cef 0c3e 4fa5 94bd 6703 35bd
00000020: 22b1 00be fab5 48be e569 b9be 5301 513e
00000030: 6032 9abc c550 91bd 3e5f afbc 8c73 27be
00000040: eee2 e43d 2b25 c4be 6af6 81be 2a93 09be
00000050: 91ff b7be ffc6 c0bd b7b5 023e a551 2b3d
00000060: 661f 0fbe 796a 1dbe 2243 2e3e a07c 353e
00000070: a821 a53d 7ad6 59be b05c e9bd 37d8 09be
00000080: 2f29 213e f872 223d bfc8 1abe c949 003e
00000090: 3a5a 113e 5d40 353e 1c78 0abe 6fff 833d
000000a0: 1d7f 8c3b c470 dcbd 47e0 babe 896d 82bc
000000b0: de98 6ebc 9cfd 6fbd ca4d d8bc 921b 4ebe
000000c0: b96d 373e 6692 90be e035 aebe 7f1d b03c
000000d0: 11ca b1be 9380 6cbd d92f 9dbb 9247 ce3d
000000e0: 6505 3fbd a3e5 20be eb8b 6c3d eee2 593e
000000f0: d28b 203e 079b 12be 3998 6abe 8cf4 54be
00000100: 8358 673e d2e6 7a3d f7d9 26be 46fa 423e
00000110: a95f 2a3e e5dc 273e 7053 36be de66 043e
00000120: 0560 663d 48fa 9abb 9f74 b3be a8be 8dbe
00000130: e75a 133d 3f85 d0bc 8b1a 82bb 0c01 50be
00000140: 3a8e fe3d 8d19 4ebe 159a a4be ee94 213e
00000150: cfe9 38be c2aa 9abd 2815 40be 9c6e 913d
00000160: 6c85 943d 79ad 29be f020 06bd 249f 6d3e
00000170: 8a3d 3a3e 2218 cebd 733c 99be cc3a 7ebe
00000180: ef48 a03d f9d8 173d eacb 20be ad50 223e
00000190: ea0f 0e3e 6c4e 353e 78f8 2bbe f08e 1c3d
000001a0: fc9a 89bc 9cd5 dc3c d848 bdbe 2f75 5ebe
000001b0: db4d 453d 3cc9 22bd a12a 753c 3090 6fbe
000001c0: 7ba7 303e bfae 52be 6ac2 a0be 1470 4a3d
000001d0: aa3a 84be 7ff0 ebbd 6c9e ebbd d375 8c3d
000001e0: d106 d93c 259a 20be e428 263d 52db 633e
000001f0: 3d48 373e a403 0abe d8fc 9dbe fc48 76be
00000200: 7671 093f 7fdc 273d 4dda d1bd c692 2d3f
00000210: 3cb3 ce3d 36e2 213e 296d 0ebe a6c7 dd3e
00000220: e9a6 8a3e c315 663d 3271 86be ad98 fdbe
00000230: 4fd9 3abd f3f4 34ba 9103 86bd 0396 12be
00000240: 7a83 833e 1825 463c f56c 46be bf2e 0d3f
00000250: 8fe4 b2bd 0110 8fbc 3c36 5fbe ae45 833e
00000260: 44ed 103e 5128 3abe 7ee5 56be 7567 0e3e
00000270: 3446 b63d 35e7 22bd 1c2c 7abe 32e1 a1be
00000280: c023 923d 5bda a2bd 0fb5 743e 3264 8d3e
00000290: f266 2ebe 3ef7 0dbe 7710 ad3d f715 273e
000002a0: bf88 223e 435a ef3d 1cfa c43e a2b6 59be
000002b0: 71f1 ebbc 6312 8c3d 00ad f4bc 2849 6f3e
000002c0: 7ccf 98bd 1419 c63e bfd2 a73e 83af a13e
000002d0: f508 cb3e 22a3 053e 10ae 27be bbd9 f73c
000002e0: df25 0a3e ddce 203e bb28 78be a424 7fbe
000002f0: 2213 2fbe be15 783e d9b9 693e 5e6e 263e
00000300: af5d 5b3e cfda 2cbd b368 5c3e 8032 c63e
00000310: 7c01 49be 3c1f 2cbe ef51 d83d eafc 5d3e
00000320: ba82 843e 4067 043e 38e8 d83e 90df 8bbe
00000330: 01a5 85bd 5965 5e3d b767 7abd 7ad3 563e
00000340: 853d 06be 2f96 bd3e dc66 a53e 15c9 b43e
00000350: 75c4 d63e 62d7 0f3e f9b1 29be e68b 823d
00000360: bd1e 1e3e b5e3 103e 62bb 9fbe 1f4e 85be
00000370: c8fa 27be 02ee 563e d93b 6b3e bbe0 2f3e
00000380: a998 debc e03a 9a3d 8f41 25be d2ec 1ebe
00000390: 1c7f 043e 8ec2 ee3d 29c2 a5bd 08c7 4bbd
000003a0: 6851 fdbd 9d4d abbd ec89 a5be dde3 69bc
000003b0: b34b 3f3d 442c 7d3c a1fc f73b 126e 4dbe
000003c0: 107f 773d 981f 97be a16d 88be 5ffa 38be
000003d0: a64c 7abe a08c debd 8736 5dbb 16ac d5bd
000003e0: 4d53 24bd 3d79 e4bd bc76 323e 365c 3d3e
000003f0: 1daf 0a3e 3e3f 37be 8cae 7cbe 50f2 27be
0.066687666 0.07202062 -0.16903357 -0.1753469 0.14208785 0.1376316 -0.072580926 -0.044192698
-0.12567571 -0.19600669 -0.36213604 0.20410661 -0.018822849 -0.07095484 -0.02140772 -0.16352671
0.11176096 -0.38309607 -0.25383312 -0.13435045 -0.3593717 -0.094129555 0.12764631 0.04182591
-0.13976821 -0.15372647 0.17017797 0.17723322 0.0806306 -0.21273223 -0.11394632 -0.13461386
0.15738367 0.039660424 -0.15115641 0.12528147 0.14194575 0.17700334 -0.1352238 0.064452045
0.004287614 -0.10763696 -0.36499235 -0.015921371 -0.014562814 -0.05859147 -0.02640428 -0.20127705
0.1791295 -0.28236693 -0.34025478 0.02149844 -0.34724477 -0.057739805 -0.0047969637 0.10072245
-0.046636004 -0.157126 0.057750624 0.21277973 0.15678337 -0.1431695 -0.22909631 -0.20796412
0.22592358 0.061255284 -0.16294084 0.19040784 0.16638054 0.16392858 -0.17805266 0.12929866
0.056243915 -0.004729543 -0.35049912 -0.27684522 0.035975363 -0.025454162 -0.0039704493 -0.203129
0.12429471 -0.20126934 -0.32148805 0.15779468 -0.18057941 -0.07552101 -0.1875807 0.07101175
0.07252011 -0.16570081 -0.032746255 0.23205239 0.18187538 -0.10063197 -0.29928932 -0.24827117
0.07826411 0.037072156 -0.15702787 0.15851088 0.13873258 0.17705697 -0.16794002 0.038222253
-0.016797535 0.026957326 -0.36969638 -0.2172439 0.048169952 -0.039742693 0.014963777 -0.23394847
0.17251389 -0.20574473 -0.31398326 0.049423292 -0.25826007 -0.1152048 -0.11504826 0.06858411
0.026492508 -0.15683801 0.04056634 0.22251633 0.1789865 -0.13477951 -0.30856967 -0.24051279
0.5368875 0.040981766 -0.10246716 0.67802083 0.1009278 0.15808949 -0.13908829 0.43316382
0.27080467 0.056173097 -0.26258236 -0.49530545 -0.045617398 -0.00069029554 -0.06543649 -0.14315037
0.25686246 0.012093805 -0.19377501 0.55149454 -0.08735 -0.017463686 -0.21798033 0.256391
0.1415301 -0.18179442 -0.20985982 0.13906653 0.08900109 -0.039771277 -0.24430889 -0.31617123
0.07135725 -0.07951804 0.23897193 0.27615505 -0.17031458 -0.13863847 0.08450406 0.16316973
0.15872477 0.11687138 0.38472068 -0.21261075 -0.028801652 0.068394445 -0.02986765 0.2336775
-0.074614495 0.38691008 0.32777974 0.31579217 0.3965527 0.13050511 -0.16374993 0.03025519
0.13491009 0.15703912 -0.24234287 -0.24916321 -0.17097142 0.24227044 0.22824802 0.16253039
0.21422456 -0.04220086 0.21524315 0.38710403 -0.19629472 -0.1680879 0.105625026 0.2167851
0.25880986 0.12930012 0.4236467 -0.27319002 -0.065256126 0.05429587 -0.061134066 0.2097911
-0.13109405 0.37028643 0.32305038 0.35309663 0.4194676 0.14047006 -0.16571797 0.0637434
0.15441413 0.14149363 -0.3119765 -0.26036164 -0.16404259 0.2098923 0.22972049 0.17175572
-0.027172403 0.07530761 -0.1613829 -0.15520027 0.12939113 0.11658202 -0.08093674 -0.049750358
-0.12369043 -0.08364413 -0.3233179 -0.014275518 0.04670305 0.015452448 0.0075679575 -0.2006152
0.06042391 -0.29516292 -0.2664614 -0.18064259 -0.24443302 -0.10866666 -0.0033754425 -0.104332134
-0.040118504 -0.11155937 0.17428106 0.18492207 0.13543363 -0.17895219 -0.2467596 -0.16401029

context_transformer_0/kq_shared_bottleneck/norm/mul;context_transformer_0/kq_shared_bottleneck/norm/add;context_transformer_0/attention/query/einsum/Einsum;context_transformer_0/attention/query/add;context_transformer_0/attention/value/einsum/Einsum;context_transformer_0/attention/query/add/ReadVariableOp/resource;context_transformer_0/attention/Mul;context_transformer_0/attention/Mul/y f4 [32]
00000000: 4cce 263e c8d4 033e 984a dd3d a209 063e
00000010: cfc7 9a3c 8d27 5ebe 1a5b 75be d418 253e
00000020: 3274 62bd b150 c5bd 3402 14bc d713 cc3d
00000030: 8fbb e03c bcc4 8ebd d3a0 153d 3366 6dbd
00000040: fdd8 5b3e edd8 f1bd 04a2 45bd 6746 6f3d
00000050: 58f7 07be 8ad8 38be 21a1 783d f41d adbd
00000060: f13e ebbd b96c 2f3d e43b 9f3c 0a05 d03c
00000070: e5da 3a3e 097b 08bd 7222 bcbd 0c70 00be
0.16289634 0.12874138 0.10805243 0.13089612 0.018894104 -0.21694775 -0.23960534 0.16122752
-0.055286594 -0.09634531 -0.009033728 0.09964722 0.027433185 -0.06971118 0.036530327 -0.057958793
0.21469493 -0.118089534 -0.048250213 0.05841675 -0.13277948 -0.18051353 0.06070054 -0.08452979
-0.114866145 0.042828295 0.019437738 0.025393028 0.18247564 -0.03332046 -0.091862574 -0.12542742

context_transformer_0/kq_shared_bottleneck/norm/mul;context_transformer_0/kq_shared_bottleneck/norm/add;context_transformer_0/attention/query/einsum/Einsum;context_transformer_0/attention/query/add;context_transformer_0/attention/value/einsum/Einsum;context_transformer_0/attention/query/add/ReadVariableOp/resource;context_transformer_0/attention/Mul;context_transformer_0/attention/Mul/y1 f4 [32, 32]
00000000: 757d e33d fbc3 9a3d 9772 70bc c6ac 70bd
00000010: 7174 82bc ec87 9bbc 503a 143c cfc7 583c
00000020: 227c 993c 2819 173c c95a 02bb f34d b5bc
00000030: e737 d8ba 38a8 e53d 85e9 50bd d14b 5dbb
00000040: 279f 04bd 1d5c ddbc dc19 4bbc 782d 623c
00000050: 83d0 41bd 918f 30bc bb90 413d 0339 203d
00000060: 33a7 a2bc fe63 2fbd 3a5d 89bb c6b6 61bc
00000070: 4490 1dbd f414 85bd 0f5d a23d bc13 9e3b
00000080: e4dd 023e 906e 873d 7c33 ed3b 6199 c8bc
00000090: bd83 31bd 172d 0cbd 62ce b13c 7320 b63c
000000a0: 14c8 713d 6bda 513d 2448 e73c 66c6 95bc
000000b0: e6fe f43b 8279 b63d ffde 89bd 8083 4f3c
000000c0: 4222 1ebe 5acc 60bd a776 90bc 8ed7 163d
000000d0: 20c6 a63c 8cf5 dc3c c0d9 ad3c 051e 9d3d
000000e0: 2d34 af3b 6861 05bd 281a 41bd 1cf1 13bd
000000f0: 69ef 7bbd d9d8 77bd 6e0a d43d 9b6b b83c
00000100: 116a e73d a813 1c3d 753a 5c3c 4ac9 3abc
00000110: 7357 34bd dcc5 14bd eaa4 3e3d ec56 723c
00000120: 6e37 6d3d f9cc 743d b8e5 253d 9bce c7bc
00000130: 3455 dc3a d3b0 633d 146c 6fbd efbb b03c
00000140: 29dd 76be f087 4fbd 811d 32bb 1998 1a3c
00000150: a0d8 b83d 54e5 a53c 1731 cfbc d3c8 833d
00000160: afda 033d 8c86 43ba ba07 05bd 6fce 64bd
00000170: 1001 90bd ce68 1abd 6727 e53d aa65 243d
00000180: 7bc0 bf3d c1ad 303d 4d62 323c 9d3f 0fbd
00000190: d099 22bd ab42 58bd a034 5d3d 52a7 9f3c
000001a0: c9c4 143d 0bd6 5a3d 4849 fc3c 4856 9039
000001b0: a129 403c 78aa 903d 8f94 38bd d0bf a73c
000001c0: 9fce 57be 5bfc 23bd b61e 0b3a f9d4 3e3c
000001d0: a721 7c3d 3f9f 1f3d d64f 163c 0a7d 423d
000001e0: a415 c63c 82f0 a6bc 8f90 2dbd c2d1 6fbd
000001f0: ad01 b3bd 2694 43bd 7532 d63d ed44 583d
00000200: bfbc 1b3e 3820 303d 8f99 d4bb 7234 513d
00000210: d75d 62bc 00f6 92bb 8d2e 833c 15f8 8c3d
00000220: 2f91 f53d 87af bc3d 7f4a 103d adfe 17bd
00000230: 66a3 a83c 9a63 e53c aafc ccbd 7e74 863b
00000240: 63bf b0be 7624 cdbd da1f 26bd a88d 9d3d
00000250: eb65 0f3e d80b d13c a5d5 a1bd c9ef 053e
00000260: 96f9 923d 4c54 52bc 5dbe aabd 361d 23bd
00000270: c59e 97bd 968e 46bd 3c01 a13d 3e5f 323d
00000280: c51d d6bd 5ed6 56bd f835 c739 75c5 ce3d
00000290: 48eb fe3c 46e2 163d aafe cebc ebaa 103c
000002a0: c8b6 8b3b 36b8 3cbb a4e3 6cbc 2eea e03b
000002b0: 508e 583c 8fd3 edbd f263 0a3d a0b9 74bc
000002c0: f40a 163c 11d1 ce3c 2075 22bc 7e34 013d
000002d0: f167 423d 0b89 90ba 980f 8dbd 464b 943b
000002e0: aaf5 273d 42a4 103d 353e e3bc 821b 0d3d
000002f0: d2e5 833d 46ec 483d 22f8 ecbd 09e5 13bc
00000300: 2ba8 a0bd 5e4c 7bbd aabc 16ba 8836 063e
00000310: ce80 2b3d 4493 823d 1143 24bd 68bd 6f3c
00000320: e42c c33c 0911 a43c 27cc febc be91 523b
00000330: 42b3 6e3c 48dd 10be 7638 e93c 1617 94bc
00000340: 65b0 33bc 286c f73c fb4a 8cbc 3258 d83c
00000350: 856e b03d 8e41 7cba 0819 d8bd e88e 433d
00000360: 6ee1 463d d0d6 e53c 3a8d debc a4f7 a53c
00000370: 6b0f 803d 23a1 283d 06f6 e2bd 008d b7bc
00000380: a63d 773d 060e 2e3d 848d cf3b a16e d2bd
00000390: 3da9 dfbc ffa3 02bd e7af ba3c 9421 5a3b
000003a0: 74d5 14bc b102 023d a84b 2b3c 88f5 b6bc
000003b0: 68aa f93b 24e1 b33d bcd5 afbc 58fb 333b
000003c0: 2ed1 a6bd a566 22bd 5fe4 983c cdaf 29bc
000003d0: 5b53 393b b96c 18bb 72e8 213d 217a 1bbd
000003e0: a801 83bc a70c 8fbc b446 443c 7477 e0bc
000003f0: f06b 4ebd 6ee8 90bc 5cba a83d 5356 a73c
0.111079134 0.075569116 -0.014675758 -0.05875852 -0.015924664 -0.018985711 0.009047106 0.013231232
0.018735949 0.009222306 -0.0019890538 -0.022131896 -0.0016496152 0.11213726 -0.05100395 -0.0033767114
-0.032378342 -0.027021462 -0.012396302 0.013804786 -0.047317993 -0.010776416 0.047257166 0.03911687
-0.019855117 -0.04281997 -0.0041920217 -0.013776487 -0.03846766 -0.06498137 0.07927906 0.00482413
0.12779957 0.06612885 0.0072388034 -0.0244872 -0.043338526 -0.03422269 0.021704856 0.02223227
0.0590287 0.05123369 0.028232642 -0.01828308 0.0074766753 0.089098945 -0.06731986 0.012665629
-0.15442756 -0.054882385 -0.017634703 0.036826663 0.020358145 0.026972555 0.021221995 0.076717414
0.005346796 -0.032563597 -0.047144085 -0.03611861 -0.061507616 -0.060509536 0.10353552 0.022512248
0.112995274 0.038104683 0.013441672 -0.01140053 -0.04402871 -0.036321506 0.046543993 0.014791232
0.05791419 0.05976579 0.04050228 -0.02439051 0.001681006 0.055588555 -0.05845268 0.021573989
-0.24107803 -0.05066675 -0.002717823 0.009435677 0.09025693 0.020250954 -0.025291963 0.064347886
0.032190975 -0.0007458709 -0.03247807 -0.055860933 -0.07031453 -0.037697606 0.11189156 0.040136017
0.093628846 0.043134455 0.010887695 -0.034972776 -0.03969747 -0.052797955 0.054005265 0.019488964
0.03632048 0.053426784 0.030796662 0.00027530105 0.011728675 0.07063764 -0.04506355 0.020477206
-0.21074913 -0.040035587 0.00053070055 0.011647456 0.06155553 0.03897023 0.009174308 0.047482528
0.02418024 -0.020378355 -0.04237419 -0.05854965 -0.08740554 -0.047748707 0.10458843 0.052800108
0.1520872 0.042999476 -0.006488032 0.051075406 -0.0138163185 -0.004484892 0.016013408 0.068832554
0.11990582 0.09213167 0.035227295 -0.037108112 0.020585727 0.028001595 -0.10009129 0.0041032424
-0.34521016 -0.1001672 -0.04055772 0.076930344 0.14003722 0.025518343 -0.079020776 0.13079752
0.07176511 -0.012837481 -0.0833709 -0.03982278 -0.0740333 -0.048475824 0.078615636 0.04354786
-0.10454897 -0.05245053 0.00037996448 0.10096256 0.03111805 0.036836885 -0.025267918 0.0088298125
0.0042637326 -0.0028796322 -0.014458571 0.006863854 0.013217524 -0.11612617 0.03378672 -0.014936835
0.009157885 0.025246175 -0.00991562 0.0315442 0.047462407 -0.001102717 -0.0688774 0.004525575
0.041005768 0.0353129 -0.027739624 0.03445006 0.06440319 0.049053453 -0.11570765 -0.009026774
-0.078445755 -0.061352126 -0.0005750159 0.1310674 0.041870885 0.06375745 -0.040103022 0.01463256
0.023825116 0.020027654 -0.031103207 0.0032130326 0.014569106 -0.14146912 0.028469305 -0.018077414
-0.010967349 0.03020294 -0.017125597 0.026409242 0.0861483 -0.00096228055 -0.10551649 0.047743708
0.04855483 0.028056532 -0.027166951 0.020259686 0.06252941 0.041169297 -0.110820815 -0.022406101
0.060361527 0.042493843 0.0063340086 -0.10275007 -0.027302379 -0.03189468 0.022788955 0.0033284174
-0.009084094 0.031740848 0.01045505 -0.022333875 0.007619191 0.087831765 -0.021464221 0.0027463045
-0.081453666 -0.03964867 0.018663583 -0.010356856 0.0028278443 -0.0023258163 0.039528318 -0.037958268
-0.015992 -0.017462088 0.011979748 -0.02740071 -0.050395906 -0.017688956 0.0823867 0.020426905

context_transformer_0/ffn_layer_0/intermediate_dense/einsum/Einsum;context_transformer_0/ffn_layer_0/intermediate_dense/Relu;context_transformer_0/ffn_layer_0/intermediate_dense/add f4 [32]
00000000: 53f9 8ebe ec9a 54be 7b16 e1be 4819 b0be
00000010: 192a e0be 0266 80be 73d1 adbe 3da9 78be
00000020: 3cae dabe 1b99 d3bd 46f3 81bd b4ad bbbe
00000030: e3fa 12be 12e1 8cbd 5d74 afbb 701d e1be
00000040: 4369 30bd a17f 2fbe 1b5d 04bf dab2 e6be
00000050: 3771 c6be 5ef4 55be 47b7 cabe 47fa 05be
00000060: 357c 95be 6de9 cbbd 1a4b 11be b023 13bf
00000070: 549e 1cbf 48ed eebe 46a3 c8be c40a 15bf
-0.27924594 -0.20762223 -0.43962464 -0.34394288 -0.43782118 -0.25077826 -0.3394886 -0.2428331
-0.42711055 -0.10331937 -0.06345229 -0.36655962 -0.14353518 -0.06878866 -0.0053544478 -0.43967772
-0.043069135 -0.1713853 -0.5170457 -0.45058328 -0.3875825 -0.20894 -0.39592955 -0.13083754
-0.29196325 -0.09956632 -0.14188805 -0.5747633 -0.6117909 -0.46665406 -0.39187068 -0.5821955

context_transformer_0/attention/norm/mul;context_transformer_0/attention/norm/add;context_transformer_0/ffn_layer_0/intermediate_dense/einsum/Einsum;context_transformer_0/ffn_layer_0/intermediate_dense/Relu;context_transformer_0/ffn_layer_0/intermediate_dense/add f4 [32, 32]
00000000: db3c efbc c250 1ebe db78 0ebd a3bc 0b3e
00000010: f605 a7bc 7078 55be 211b 023e c1a7 0c3c
00000020: 7337 f23e 8543 d4bc d853 42bb 115b 143e
00000030: 06b5 51bd 5147 b6bd 0d64 843c 372f 31bb
00000040: 7438 863e db60 113e c8a3 743d 8ef3 cdbd
00000050: 1afe eb3b 70aa 46bb b11d 913d 4870 32be
00000060: 42fc 04bc 3012 093e afb5 0c3e b164 323e
00000070: 70e4 efbd f1fa 0f3e 2b7e f63d e0cd dbbd
00000080: 3611 2dbd 2bb4 dd3e 3aeb a63e 5fbd 6abe
00000090: bcae 9a3c 460e fdbe f3f0 06be 4021 25bd
000000a0: e7cd 323e ccbc 1d3d abf2 4e3e e54e 1fbe
000000b0: f40f 773e b071 23be efb4 80be 6415 34be
000000c0: 2c8f 7e3e e513 793d 3d16 26bd 8934 69bc
000000d0: 8ad6 0b3e 3a66 6d3d 0a1b c33d ca9f d8be
000000e0: a63e a9be a408 87bd 7fcc aabe 697e a13d
000000f0: adc6 56bd 4982 a5be 1849 703d 74f9 64be
00000100: 19bc 7d3d dee0 4d3e f1ea 133d 5826 6e3d
00000110: 994a 48be f578 99be e4be 283d 1e99 56be
00000120: bcfb 8b3e f775 c9bc 2dee 93bd b254 013e
00000130: 1316 9c3c d177 51be 91e6 f03d 991b 75be
00000140: 2a42 b13e f064 0b3e c085 eebd 3da1 8bbd
00000150: 2892 4ebe e368 073d 4320 443e 5f0f 07be
00000160: a86e 69be ebf1 bd3e 8345 e3bd 8ae4 8a3e
00000170: 8bd6 e9bd 1e4f 7a3d 764f 933e 2b9d 443e
00000180: 97d9 0b3f fb4a 0f3e 6ed3 0e3e 5d06 81bd
00000190: 2dc0 95be 2b15 d33c a1ad 96bd 7ac1 9abe
000001a0: 817b 18bd 0134 053d 45ad e33d b9e0 d23e
000001b0: f50f ccbd 6fcc 6f3d 678f 09be 1881 86bd
000001c0: 1e71 333e 8f44 29be 48d9 3f3d 24ab 3d3d
000001d0: 5136 dfbd 6a2e d8bd dff5 843e 9086 debd
000001e0: aadc a0bd 4fc7 e33e 712e 4ebd 5504 203e
000001f0: 0cba 5abe 24e0 0d3e 25e7 ab3d d334 733e
00000200: 50d3 7cbe 6ed7 bf3d eac2 0abe e718 73be
00000210: 3de2 58bd f222 8ebb d833 4e3e a0d2 be3d
00000220: cbc4 79bb 8e9e fabd 3fa2 9d3d 87a0 9d3e
00000230: e032 e03d 9698 69be c7d0 373d 4012 033e
00000240: 5776 89bd 8628 8fbd 41ef 293e 9793 a2be
00000250: 1da1 6c3e f4b8 cfbc ccc8 4b3e 6ae4 1e3d
00000260: b066 28bf 00ac 14bb 9cbb a13d 9716 65bd
00000270: 593e 213e 4120 ce3d a8ee 863e 19f5 a2be
00000280: d2a9 7b3e dd2c 45be 6e1c 07bd 1181 8b3c
00000290: d9d8 3cbf 5599 95be 80ea fcbd 3050 96be
000002a0: b45e fabd b83c 563e 879b 71be 9aeb a1bd
000002b0: 3761 12be 24f8 3ebe 23b7 b03b 19c8 013e
000002c0: aeed 883e deb8 df3c 406a 00be afcc 14bd
000002d0: 26c1 a73e c520 e4bd 254b e4bd 707f f5bd
000002e0: 3d7e 43bd 3945 b63d 1927 8dbe 7c01 e43e
000002f0: a61e 4abd 0b54 0e3e aa07 1e3d 24c8 c5be
00000300: 01c5 02bd 92b2 2dbd ec02 113d 2c18 6e3e
00000310: 9ba6 bdbe 2c9a 6f3e 8902 5b3d bf71 52be
00000320: f531 673e 694e 06be 28e5 85bd b3b9 9bbc
00000330: d093 1fbe b567 78bc f3d6 a5bd 12b8 2cbe
00000340: 7719 ec3d b326 593d 6526 0a3e e5d8 9fbe
00000350: 2289 0fbe 8330 07be a3ab d7bd dab4 7abd
00000360: d1b3 d939 1ebc b63c d123 35be c20d d43e
00000370: c89f 8cbe ee89 26bc f3bf a0be 4c11 823d
00000380: c218 44be 0342 0fbe bd1d 29bd 7b71 793e
00000390: e2c3 3fbf 6112 083d 9632 0a3e d5c3 94be
000003a0: 5873 c43d 9e8e f83d ba63 3dbd aada 84be
000003b0: 47ec b6bd 8d49 853d 59ed 58be 3c17 083c
000003c0: 61de 36bd bbea 73be cd5b 72be e2ff 0ebe
000003d0: 9c9b c83d 7687 213e 99e3 8f3c 41bc 313e
000003e0: 95f2 2cbc 36bd 4cbd f699 13be 1773 e63e
000003f0: a0f8 c2bc b919 003e dc81 0b3d 944e 383e
-0.029203823 -0.15460494 -0.034783226 0.13646178 -0.020388585 -0.20846725 0.12705661 0.0085849175
0.4730793 -0.025911102 -0.0029652026 0.14487864 -0.051198028 -0.08900321 0.01616099 -0.00270362
0.26214945 0.14197104 0.059726506 -0.1005622 0.007201922 -0.003031399 0.07085741 -0.17425644
-0.008116784 0.13385844 0.13741182 0.17421223 -0.11713493 0.1406057 0.120357834 -0.10732627
-0.04225274 0.4330152 0.3260134 -0.22923802 0.018882148 -0.49424952 -0.13177852 -0.040314913
0.17461358 0.03851013 0.20209758 -0.1555744 0.2412718 -0.15961337 -0.2513804 -0.17586285
0.24859303 0.06080999 -0.04054855 -0.014233717 0.13656059 0.05795882 0.09526642 -0.4230941
-0.3305561 -0.06593445 -0.33359143 0.07885439 -0.052435566 -0.32325962 0.058663458 -0.22360784
0.061946962 0.20105311 0.03611273 0.058142036 -0.19559707 -0.29975095 0.041197672 -0.20956847
0.27340496 -0.024592383 -0.07223163 0.12629965 0.019053495 -0.20455863 0.11762727 -0.23936309
0.34620792 0.13612723 -0.116466045 -0.06817863 -0.20172942 0.033059012 0.19152932 -0.13189457
-0.22796118 0.3709863 -0.11097243 0.27127486 -0.11417874 0.06111061 0.2877156 0.1920058
0.5462889 0.13993447 0.13947842 -0.06300042 -0.2924818 0.02576693 -0.07357336 -0.30225736
-0.037227158 0.032520298 0.11117033 0.41187075 -0.09963981 0.058544572 -0.1343361 -0.065675914
0.1752362 -0.1653006 0.046838075 0.04630579 -0.10899032 -0.10555728 0.25968835 -0.108655095
-0.07854588 0.44487998 -0.05033726 0.15626653 -0.21360034 0.13855034 0.08393697 0.2375062
-0.24689984 0.09367262 -0.13550916 -0.23739968 -0.052950133 -0.004337662 0.20136964 0.09317517
-0.0038111683 -0.12237273 0.076969616 0.30786535 0.10947204 -0.22812113 0.04487684 0.1279993
-0.06712025 -0.06990151 0.16595174 -0.31753227 0.23108335 -0.025356747 0.19900817 0.03879205
-0.6578169 -0.0022685528 0.07897112 -0.055929746 0.1574644 0.10064746 0.26353955 -0.3182762
0.245765 -0.19255395 -0.032986097 0.017029317 -0.73768383 -0.29218546 -0.12349415 -0.29358053
-0.122250944 0.209216 -0.23594485 -0.079062656 -0.14294897 -0.18649346 0.0053929253 0.12673987
0.26743835 0.027309831 -0.12540531 -0.036328014 0.32764548 -0.11139063 -0.11147145 -0.119871974
-0.047727812 0.08899922 -0.27568892 0.44532382 -0.049345635 0.13899247 0.038581528 -0.38629258
-0.03192616 -0.042406626 0.035403177 0.23251408 -0.37041172 0.23398656 0.053469215 -0.20551203
0.22577651 -0.13115849 -0.06537849 -0.019009447 -0.1558373 -0.015161444 -0.08097639 -0.16867092
0.115282945 0.053015422 0.13491209 -0.31220165 -0.14017156 -0.132021 -0.10530784 -0.06120763
0.0004152344 0.022306498 -0.17689444 0.41416746 -0.27465653 -0.010164721 -0.31396446 0.06350955
-0.1915007 -0.13990025 -0.041288126 0.24359696 -0.7490827 0.033220652 0.1349586 -0.29055658
0.095923126 0.12136577 -0.046237685 -0.25948077 -0.08931785 0.06508169 -0.21184291 0.008306321
-0.04464567 -0.23820011 -0.23667832 -0.13964799 0.09795305 0.1577433 0.017564582 0.1735697
-0.010555883 -0.049985133 -0.144142 0.45009682 -0.023800194 0.12509812 0.03405939 0.17998725

context_transformer_0/ffn_layer_1/intermediate_dense/einsum/Einsum;context_transformer_0/ffn_layer_1/intermediate_dense/Relu;context_transformer_0/ffn_layer_1/intermediate_dense/add f4 [32]
00000000: cf5f 95be ab0e d5be a989 f7bd 56cd 89be
00000010: 791a d0bd cbb2 afbe bb9e e3bd 3ccf fa3d
00000020: c087 9dbe 44f3 6bbe 7ad3 8bbe e61d ae3d
00000030: a276 4abe 448c 88be c4c4 ba3c 659c d0bd
00000040: 6df5 d8be 20b2 2a3d 5131 9bbe 0220 8ebe
00000050: 0b2e 6d3c beda cebe 2eea 28be 1205 a8be
00000060: 43fe d1be 7982 d53d b52c 00be dd8e a9be
00000070: 8d00 1cbd 9bdc 65be 9903 3bbe 290c 3bbe
-0.2917466 -0.41612753 -0.120868035 -0.2691447 -0.10161299 -0.34316096 -0.1111426 0.12246558
-0.30767632 -0.23042017 -0.2730978 0.085017964 -0.19771817 -0.26669514 0.022798903 -0.1018608
-0.42374745 0.04167378 -0.30311063 -0.27758795 0.0144763095 -0.40401262 -0.16495582 -0.32816368
-0.410143 0.10425276 -0.12517054 -0.3311681 -0.038086463 -0.22447436 -0.18263091 -0.18266357

context_transformer_0/ffn_layer_0/norm/mul;context_transformer_0/ffn_layer_0/norm/add;context_transformer_0/ffn_layer_1/intermediate_dense/einsum/Einsum;context_transformer_0/ffn_layer_1/intermediate_dense/Relu;context_transformer_0/ffn_layer_1/intermediate_dense/add f4 [32, 32]
00000000: 9393 f13d c8e6 563e 956f db3e f12d 84be
00000010: 58ce 26be 38e0 a83e 7dfc bfbc c4ae 3bbe
00000020: 38bd 0f3e 2c56 483e 7423 9d3d 7694 a6bb
00000030: 8ea8 393d 71cb c33d 0a70 29bd ce00 0d3e
00000040: 24c0 593e 1fa2 c6bd bdc1 1bbe 0566 b7be
00000050: 1e05 6cbe 4776 d4be adb1 3f3d 6610 09bf
00000060: 84e4 90bd db51 6c3d a40a 293e 48f7 563e
00000070: 5bc4 9cbc 9496 f2bd 9673 e73e 9cff 79bd
00000080: 1530 82be 7b4a 61be 39c1 1e3d d553 0ebe
00000090: c393 d2bd a6b1 b63e 6f87 18be 4efa a33d
000000a0: eba8 573e 2beb 3cbe 3d11 cc3c 82d5 2cbe
000000b0: 61ab 173e ccf9 c4bd 0bf2 00be 0c70 4cbe
000000c0: e32f 97bd e3cb ad3d 37ed 1d3e 4c7e ff3d
000000d0: bee1 3dbe d255 9fbc c3d6 ffbe 2da4 213e
000000e0: a48c 843d 0e12 1bbe 310f 67be 8f88 643e
000000f0: c47b 2d3e 60e2 443e 8e0b 753e baa1 5b3e
00000100: 9c23 59bd bbf8 c2bd 1b57 1cbe 16f7 f13d
00000110: d340 403d 4f75 b93e ede1 08bc 5145 163d
00000120: c27d cc3e 0302 71be 3baf 6b3c ad97 45be
00000130: eff9 4dbd 07d0 09be 90a7 f23d 3198 8fbe
00000140: 9ed4 4b3e 8b2e b2ba 6bd1 c83d 780b 04bf
00000150: c38d 61bd 37c0 f9bd dff2 1dbd 2dea 60bd
00000160: 2952 1b3d 8a71 6f3d e796 49be 5af7 df3d
00000170: 9fe8 6fbe f120 c63e d6f5 e33e e703 8bbd
00000180: f514 c43e ef96 5d3e 0afb a93e dc08 b8bd
00000190: 8bba 82be 6fbe 983d 1db8 c7be dc1d 6dbe
000001a0: 15f8 ccbd 4510 a8bd 843a b23e 038e 1b3e
000001b0: a00f d63d 3010 55be 08bf 003d 0157 c6bc
000001c0: 1517 273e 8c84 ba3d cafe f9bc b7d4 a93d
000001d0: 06ae 103e af9a 873d 62cb 833e 5373 adbe
000001e0: 0f64 02be 138a be3e 5e9b 49be cf5a 5c3e
000001f0: bb3a 34bd f1b1 513e 8f66 283e ec9d 853d
00000200: d0ac 93be fac0 d13e e5de 0fbd f70e 34bc
00000210: 4b9d 83be 2fb5 51be a7ec 0f3e 2225 d1bc
00000220: f13c 303d f12d 413e 4359 173e 0105 063e
00000230: 8aa8 493e 63f3 a3be 8d1f 283e 66af c03d
00000240: a8bc 5e3e c844 993e 723b c7be 30f1 64be
00000250: 42fd a8be 114b 833e b587 193d 3a39 efbd
00000260: 58a3 4dbe c70b b0bc b38b 5f3d b3da ec3e
00000270: b35d 353e 94f7 c43e 2497 babe ac5a f83d
00000280: 2554 86be 3f67 f03e 6ae0 9f3d 97cc 3cbe
00000290: 85c8 2bbe f48b 283e eeda 9f3d d931 d5bc
000002a0: c714 1dbe 9f70 a1bd 602d dfbd 0ba3 853e
000002b0: 0739 23be 76cd 74be 7061 a53c 90f1 d93d
000002c0: 298a 613e 71ab b93d 3ca8 053e 4668 f3bc
000002d0: 93da d23b a19d 233e d0e8 a13d c9dc 08bf
000002e0: 0cd4 81be 90d2 33bd f8bb af3e 5ba8 e83e
000002f0: be84 4e3e e86d 033d 08ba 84be 0acc 393e
00000300: 1f88 8b3d f09d 48bd 09b7 06be 5c79 9dbd
00000310: 29f7 6f3c d14c 013e d090 313d fdb9 4c3d
00000320: 65a5 8fbc 7676 183d bfa9 4d3e 32c1 ccbd
00000330: f9a1 973d 9708 8ebe ba2e bebd 6606 63be
00000340: 0dc3 083e 85df a03d b27f bd3d 2def 12bf
00000350: b4c2 27bd 96f7 37be fb47 56be 3f45 0a3d
00000360: 8a04 81be 2d64 053d 10dd 89be 497f 043d
00000370: 3f9a 9e3e f1f1 c6be 693b eb3c 276a 32bd
00000380: 6c6f 9e3e 07ca 00be db92 1b3e 3a72 463e
00000390: da16 22bf 679a 49be ec96 44be efef e0be
000003a0: 084b 24be 42cf e73d b35a 33be df83 293c
000003b0: 7013 9cbd ca01 14be 61e8 8dbd d62b 94be
000003c0: 2ee7 0b3d b2f8 93bd 0f9f 3ebd 12d9 6d3d
000003d0: 44c2 953d da29 29be fb8c 01be ff94 0d3e
000003e0: 05b9 b83c f114 813d c319 9cbe 4398 b63e
000003f0: edcb 49bd 2c85 b83e 34fc 09bd eba4 70be
0.11795726 0.20986474 0.42858568 -0.258163 -0.16289651 0.32983565 -0.023435825 -0.18328387
0.14037025 0.19564122 0.07672778 -0.005083616 0.045326762 0.09560288 -0.041366614 0.13769838
0.21264702 -0.09698891 -0.15210624 -0.35820022 -0.23048827 -0.41496488 0.046800304 -0.5354065
-0.07074836 0.05769525 0.16507965 0.20992768 -0.019136598 -0.11845127 0.45205373 -0.061034784
-0.2542731 -0.22001068 0.03875849 -0.13899167 -0.102820896 0.3568241 -0.14895414 0.08006726
0.21060531 -0.18449084 0.024910564 -0.16878322 0.1481147 -0.096179575 -0.12592332 -0.19964617
-0.073821805 0.08486154 0.15422522 0.12475261 -0.18543145 -0.019450102 -0.49968538 0.15785284
0.064721376 -0.15143606 -0.22564389 0.22317718 0.16941744 0.1922698 0.23930189 0.21448413
-0.053012475 -0.09520098 -0.15267603 0.11814706 0.04693682 0.36222312 -0.008354646 0.0366872
0.39939696 -0.23535924 0.01438504 -0.19296141 -0.050287183 -0.13458262 0.11848366 -0.280458
0.19905326 -0.0013594193 0.09805568 -0.5158 -0.055066835 -0.12194865 -0.038561698 -0.054910827
0.03792015 0.05845789 -0.19686471 0.109358504 -0.23428582 0.38697007 0.44523495 -0.06787854
0.3829724 0.21639608 0.3319934 -0.08986065 -0.25532946 0.07458197 -0.39007655 -0.23155922
-0.100082554 -0.08206228 0.3481027 0.15190892 0.10452199 -0.20806956 0.03143218 -0.024211409
0.16317399 0.091073126 -0.030517 0.08292525 0.14128885 0.066213004 0.25741106 -0.33877048
-0.12733482 0.37214717 -0.19688174 0.21519016 -0.044001322 0.20478036 0.16445373 0.06524262
-0.28842783 0.40967542 -0.03512468 -0.010989896 -0.25705943 -0.20479272 0.1405512 -0.025530402
0.04302687 0.18865182 0.14780144 0.13087846 0.19693199 -0.32021627 0.16418286 0.094084546
0.21751654 0.29935288 -0.3891254 -0.2235763 -0.3300572 0.2564321 0.037482936 -0.11680837
-0.20081842 -0.02148999 0.054576587 0.46260604 0.17711525 0.38470137 -0.36443436 0.12126669
-0.26236072 0.4695377 0.078064755 -0.1843742 -0.16775711 0.16459638 0.078054294 -0.026024746
-0.15339957 -0.07882809 -0.108973265 0.26100954 -0.15939723 -0.23906502 0.020188063 0.106417775
0.2202536 0.09065903 0.13052458 -0.029712807 0.0064347475 0.159781 0.079057336 -0.5346189
-0.2535709 -0.04390198 0.34323096 0.45440945 0.20167825 0.032087237 -0.2592318 0.18144241
0.068130724 -0.048978746 -0.1315576 -0.07689163 0.01464633 0.1262696 0.043350995 0.04998206
-0.017534921 0.03722235 0.20084284 -0.099977866 0.07403941 -0.2774093 -0.09286256 -0.2217041
0.13355656 0.07855133 0.092528716 -0.57396203 -0.040957168 -0.1796554 -0.20925896 0.033757444
-0.25198776 0.03256624 -0.2692647 0.03234795 0.30977055 -0.38856462 0.028714852 -0.043558266
0.30944383 -0.12577067 0.1519274 0.19379511 -0.6331612 -0.19687806 -0.19198197 -0.43933055
-0.16044247 0.11318828 -0.17515068 0.010346382 -0.07620895 -0.14453807 -0.069290884 -0.28939694
0.034156017 -0.07225169 -0.04653841 0.058068343 0.07312444 -0.16519871 -0.12651436 0.13826369
0.022549162 0.063028224 -0.30488405 0.3566304 -0.049266744 0.36039102 -0.033687785 -0.23500411

context_transformer_0/ffn_layer_2/intermediate_dense/einsum/Einsum;context_transformer_0/ffn_layer_2/intermediate_dense/Relu;context_transformer_0/ffn_layer_2/intermediate_dense/add f4 [32]
00000000: ac93 bcbe c746 9bbd 7f85 423e 81ee e8bd
00000010: 8278 e03d cb95 49be 1bea 87bd 40f2 06bd
00000020: c4a1 20be 32f6 89bd f934 fdbc 8e2f 69bd
00000030: b20f 46be 4c35 08be 546d d2bb 282c 353d
00000040: 73e2 7bbc c49c a0be b9f0 cfbe 8d80 febd
00000050: 076a a8be 33d3 8d3d 835d 85bd 67a7 a1bd
00000060: de68 81bd cbba 5a3e 60f6 dfbe 131a 163e
00000070: 4113 483e c632 7f3d a164 2fbe 5bd0 48bd
-0.36831415 -0.07581859 0.18996237 -0.11373616 0.10960485 -0.19686048 -0.06636449 -0.03294587
-0.15686709 -0.06736411 -0.030909048 -0.056930117 -0.19341925 -0.13301581 -0.0064217243 0.044231564
-0.015373814 -0.31369603 -0.40613344 -0.12426863 -0.32893392 0.06925049 -0.065119766 -0.078932576
-0.0631883 0.21360318 -0.43742657 0.14658384 0.19538595 0.06230428 -0.1712823 -0.04902683

context_transformer_0/ffn_layer_1/norm/mul;context_transformer_0/ffn_layer_1/norm/add;context_transformer_0/ffn_layer_2/intermediate_dense/einsum/Einsum;context_transformer_0/ffn_layer_2/intermediate_dense/Relu;context_transformer_0/ffn_layer_2/intermediate_dense/add f4 [32, 32]
00000000: b840 abbe 7051 e13e 32f4 583e 380d 583e
00000010: ae66 9bbd c691 81be 5d92 b2be 9858 c2bd
00000020: c3ff 5bbe ebba edbd d504 c2bc 317a 08be
00000030: 36c8 0e3d 4c0d c2bd ed08 a5bd ee58 a9bc
00000040: e2c1 ef3d 0703 d2bb f376 803d 5d71 173d
00000050: 8fd3 8dbd 04b1 6ebd 0cb9 103e fc12 b8be
00000060: d506 04be b240 95be f5f7 f93c c9e1 223c
00000070: 79eb 05be 4232 c0bd 3501 8e3e 2e1e 62be
00000080: d603 68be ad69 7f3d 3e11 323d 52f4 dfbe
00000090: 9ce8 aebd 31dd 4dbd c185 1e3c bc2b 583c
000000a0: a1d9 fa3c e694 8a3c 3a2d 2bbd 1149 683d
000000b0: b1ca 713d de94 00be c27d 4cbc b7f0 0c3e
000000c0: 69da debd 70b7 06be dd67 44be 73ce 54bd
000000d0: ccc9 253e 7b49 203e b563 803e 2d81 90be
000000e0: 07f9 0bbf 0157 563d 2ba2 9c3e cc3f 6d3e
000000f0: f4bd 3bbd cc9f 04be 1c56 3c3e 1e38 d6bd
00000100: 77f0 d5ba 653d e13c 459e 933d 3e46 99bd
00000110: f9f2 f3be 8676 e1bd 68c1 02be ad03 39be
00000120: c629 44be 4e0c 243e 5950 573d 57a4 bebe
00000130: 0169 903e 317c bcbe 9c9a fdbd bb5e f8bd
00000140: d99c e7bd 66b8 e7bc dcaa 87be b310 3c3e
00000150: 8c59 283e 8c81 26be fe7e 823d e442 5c3e
00000160: 7310 23bf e666 c13e 0069 30be d648 1c3e
00000170: cccf 6abd c27b 80bc 8918 273e 2bcf d1bd
00000180: 543f a1bd 1ee1 973e c045 20be 7b91 54be
00000190: a29b f2bd 5104 cdbd 754a 1b3c ce8a dd3d
000001a0: 0b9f a73d d0e8 2d3e b7b5 dd3c ed9b 2c3e
000001b0: 2f48 0bbe 1265 41bd 085f 40be f5a9 5039
000001c0: 1800 213e d295 29be 3532 1bbd 9d47 c4bc
000001d0: 8da5 f0bd 20d9 133e ecae f33d b332 16bf
000001e0: 35f2 8abe aa30 3b3d 750d 803e cf1f c93e
000001f0: 5d3b a03e 068c a43d f7e4 8a3e 1bb6 1ebe
00000200: a052 313e 7510 93bd dadf a1bd f79b 16be
00000210: d297 31be a9c9 e73e 3708 1bbd 52c3 35be
00000220: 5b71 c6bd 2419 4cbe 994e 9abe a70a cf3c
00000230: 112f b5bc 9df8 123c 2d82 84be 3e3b 9ebe
00000240: 2a1a 273d 21a5 0fbd 628d 1b3e 2ed4 1dbe
00000250: 574f 59be 9558 4e3e 8aa3 243e a79e 3bbd
00000260: 2e8d b0bc 1a56 b83a d831 b93e 32e2 153f
00000270: 535b bfbd e725 cabd 8746 b1bd b818 1f3e
00000280: 8b63 10bd 864e 493d 0674 e1bc 5044 80bc
00000290: d153 7fbd 31f4 f93d 9f93 08bd 7b02 0dbd
000002a0: d50c 813a a21c 14bc 3763 08be 6ada 4cbd
000002b0: 233c 753d c590 833d 40d1 adbd e9ad 52be
000002c0: adab acbd 7ba5 06be 9c1c c13d c3ac 13be
000002d0: b696 cfbd eb44 b8bd 0fa8 89bd 4ddb a1bd
000002e0: 8685 a5bd c064 8abd 057b 42bd 455d b33d
000002f0: ea0b c3bd 63e8 47be a883 06be 51d3 7ebc
00000300: 5484 ddbd fcb0 cf3d 1170 d33e ed69 d33d
00000310: 1676 61be 7a89 88bc 823a 74be ea2c 4abe
00000320: 4deb 573d 02b7 23b9 2b1e c7bd 8a2e c4bd
00000330: db56 12be fb0b d13d f075 58bd aeee 39bd
00000340: bee7 e63d 5290 62be e708 15bd 73e5 3cbe
00000350: 4a23 873d d2f8 14be ba78 86bb 9db3 6cbe
00000360: 9a3a a8bd 3eec c53d f909 7f3e 91fd 783e
00000370: bebb 42bc 91d0 be3d ae5e 323e b780 40be
00000380: e11a 62bd db21 093e af08 26be 8e3e 47be
00000390: 3d91 d8be 6372 123e d8e3 a23d 8363 c4be
000003a0: 335d 603e 81af 823d 20e4 6f3e 17ca 683e
000003b0: 7788 3bbd a6ff 013e fcab 83be 86de e23e
000003c0: db31 553e 8d17 a9be bd85 ec3d 2800 2ebd
000003d0: d8c0 fb3d a89b db3d 5d40 d03d ffbc c1bd
000003e0: 1b9b ae3d d130 e33d a26f 653e eec0 ac3e
000003f0: 585f 383d 5978 11be 1402 9ebd 0870 6ebd
-0.33447814 0.44007444 0.21186903 0.21098793 -0.07587944 -0.2530653 -0.3487729 -0.09489554
-0.21484284 -0.116079174 -0.023683945 -0.13327862 0.034858905 -0.094751924 -0.08058343 -0.020672288
0.11706902 -0.0064090523 0.06272688 0.036973346 -0.06925117 -0.058274284 0.1413309 -0.35951984
-0.12893231 -0.2915092 0.030513743 0.009941527 -0.13078107 -0.09384586 0.27735296 -0.22081825
-0.22657713 0.06235664 0.043473475 -0.4374109 -0.085404605 -0.050259773 0.009675444 0.013194021
0.030621352 0.016916703 -0.04179118 0.056710307 0.059031192 -0.12556788 -0.012481155 0.137637
-0.10881502 -0.13155913 -0.19180246 -0.051954698 0.1619026 0.1565303 0.2507607 -0.28223553
-0.5467686 0.052329067 0.30592474 0.23168868 -0.04583545 -0.12951583 0.18392223 -0.10459922
-0.0016322274 0.027495096 0.07207922 -0.07484101 -0.4764631 -0.11008935 -0.12769091 -0.18067808
-0.1915656 0.16020319 0.05256686 -0.37234756 0.28205112 -0.368135 -0.12383005 -0.121274434
-0.11309213 -0.02828617 -0.26497543 0.18365745 0.1644041 -0.16260356 0.06371878 0.21509892
-0.63696975 0.37773818 -0.17227554 0.1526216 -0.057327077 -0.015684012 0.16317953 -0.10244592
-0.07873407 0.29663938 -0.15651608 -0.20758621 -0.11846091 -0.10010589 0.009478201 0.108174905
0.08184632 0.16983342 0.027064187 0.16856356 -0.13601755 -0.04721553 -0.18786252 0.0001989974
0.15722692 -0.16561058 -0.037889678 -0.02395993 -0.11750326 0.14438295 0.11898598 -0.5867111
-0.27137914 0.045700707 0.25010267 0.3928208 0.3129529 0.0803452 0.2712781 -0.15499155
0.17316675 -0.07180873 -0.079040244 -0.14707933 -0.17343071 0.45271042 -0.03784963 -0.1775029
-0.096895896 -0.19931465 -0.3013809 0.025273634 -0.02211717 0.008970407 -0.25880566 -0.30904573
0.040796436 -0.03506959 0.15190652 -0.15412971 -0.21221672 0.20150979 0.1607801 -0.0458056
-0.021551695 0.0014063746 0.3617084 0.5854827 -0.093435906 -0.098705105 -0.0865603 0.15536773
-0.03525118 0.04914715 -0.027521145 -0.015657574 -0.062335793 0.12204779 -0.033343907 -0.034426194
0.0009845743 -0.00904003 -0.13319097 -0.050012983 0.059871804 0.06424097 -0.08487177 -0.20574154
-0.08431182 -0.13149063 0.09429285 -0.14421372 -0.10136168 -0.0899752 -0.06721508 -0.079031564
-0.08082108 -0.06757498 -0.0474806 0.08758024 -0.09523757 -0.19522242 -0.1313616 -0.015553311
-0.10816255 0.10141179 0.41296437 0.10322938 -0.22017702 -0.016667116 -0.23850444 -0.19743696
0.052714635 -0.00015613067 -0.09722551 -0.09579189 -0.14290945 0.10207363 -0.05284685 -0.04539364
0.1127467 -0.22125366 -0.036385443 -0.18446903 0.06598528 -0.14548042 -0.004103747 -0.23115392
-0.08214302 0.096642 0.24906148 0.24315478 -0.011885582 0.09317125 0.1741893 -0.18799101
-0.055201415 0.13391821 -0.1621425 -0.19457456 -0.42298308 0.14301448 0.07953614 -0.3835717
0.21910553 0.06381131 0.23426867 0.22733341 -0.04578444 0.12695178 -0.2571715 0.44310397
0.208198 -0.3302578 0.11548946 -0.042480618 0.122926414 0.107230484 0.10168526 -0.09459876
0.08525678 0.11093295 0.22405866 0.33740944 0.045012802 -0.14206065 -0.0771524 -0.05821231

context_transformer_0/ffn_layer_3/intermediate_dense/einsum/Einsum;context_transformer_0/ffn_layer_3/intermediate_dense/Relu;context_transformer_0/ffn_layer_3/intermediate_dense/add f4 [32]
00000000: ba82 52bb 39c8 dcbd 162b dbbd 50d7 dbbc
00000010: 8577 c23c 539c 81bd 45bd 95bd 958d 2ebe
00000020: 6bc0 f8bd 3872 96be 752f 78be 8dcd 49bd
00000030: 5711 6bbe d632 b8bc 420b 87be a1a8 4cbe
00000040: 9ecf a4be 7a73 4fbd 73f2 1ebe 1a01 e7bd
00000050: dae5 183d e284 163d 8c51 173d 271d 453d
00000060: a246 bd3c a278 42bd a92c 69bd c3e8 f3bd
00000070: 69f7 9dbd 4e9f f3bd ceed c43c f7ce 34bd
-0.0032121376 -0.10780377 -0.10701577 -0.026836067 0.023738632 -0.063286446 -0.07311491 -0.17046197
-0.12146076 -0.29384017 -0.24236853 -0.049268294 -0.22955833 -0.022485178 -0.26375777 -0.19986202
-0.3218965 -0.050647236 -0.15522175 -0.11279507 0.03732858 0.03674782 0.036943004 0.048123505
0.02310497 -0.047478326 -0.056927357 -0.1190963 -0.07713205 -0.11895619 0.024039175 -0.04414269
